Model: "model"
_________________________________________________________________
 Layer (type)                Output Shape              Param #
=================================================================
 input_1 (InputLayer)        [(None, 4)]               0
 dense (Dense)               (None, 16)                80
 dense_1 (Dense)             (None, 32)                544
 dense_2 (Dense)             (None, 64)                2112
 dense_3 (Dense)             (None, 64)                4160
 dense_4 (Dense)             (None, 21)                1365
=================================================================
Total params: 8,261
Trainable params: 8,261
Non-trainable params: 0
_________________________________________________________________
Episode : 1 sum_costs : -2213.05 Avg Reward : -2213.05
Episode : 2 sum_costs : -2088.05 Avg Reward : -2150.55
Episode : 3 sum_costs : -2284.81 Avg Reward : -2195.30
Episode : 4 sum_costs : -2363.20 Avg Reward : -2237.28
…
