Model: "model"
_________________________________________________________________
 Layer (type)                Output Shape              Param #
=================================================================
 input_1 (InputLayer)        [(None, 2)]               0
 dense (Dense)               (None, 16)                48
 dense_1 (Dense)             (None, 32)                544
 dense_2 (Dense)             (None, 64)                2112
 dense_3 (Dense)             (None, 64)                4160
 dense_4 (Dense)             (None, 21)                1365
=================================================================
Total params: 8,229
Trainable params: 8,229
Non-trainable params: 0
_________________________________________________________________
Episode : 1 sum_costs : -650.06 Avg Reward : -650.06
[34m[1mwandb[39m[22m: Network error resolved after 0:00:33.499095, resuming normal operation.
Episode : 2 sum_costs : -615.70 Avg Reward : -632.88
…
