Model: "model"
_________________________________________________________________
 Layer (type)                Output Shape              Param #
=================================================================
 input_1 (InputLayer)        [(None, 4)]               0
 dense (Dense)               (None, 16)                80
 dense_1 (Dense)             (None, 32)                544
 dense_2 (Dense)             (None, 64)                2112
 dense_3 (Dense)             (None, 64)                4160
 dense_4 (Dense)             (None, 3)                 195
=================================================================
Total params: 7,091
Trainable params: 7,091
Non-trainable params: 0
_________________________________________________________________
Episode : 1 sum_costs : -2120.30 Avg Reward : -2120.30
Episode : 2 sum_costs : -1660.80 Avg Reward : -1890.55
Episode : 3 sum_costs : -2294.24 Avg Reward : -2025.11
Episode : 4 sum_costs : -2381.61 Avg Reward : -2114.24
…
