Model: "model"
_________________________________________________________________
 Layer (type)                Output Shape              Param #
=================================================================
 input_1 (InputLayer)        [(None, 4)]               0
 dense (Dense)               (None, 16)                80
 dense_1 (Dense)             (None, 32)                544
 dense_2 (Dense)             (None, 64)                2112
 dense_3 (Dense)             (None, 64)                4160
 dense_4 (Dense)             (None, 21)                1365
=================================================================
Total params: 8,261
Trainable params: 8,261
Non-trainable params: 0
_________________________________________________________________
Episode : 1 sum_costs : -2238.49 Avg Reward : -2238.49
Episode : 2 sum_costs : -2043.97 Avg Reward : -2141.23
Episode : 3 sum_costs : -1799.82 Avg Reward : -2027.43
Episode : 4 sum_costs : -1916.42 Avg Reward : -1999.67
…
