Warning: window 'pinocchio' already created.
The previously created objects will not be destroyed and do not have to be created again.
[-6.  -5.4 -4.8 -4.2 -3.6 -3.  -2.4 -1.8 -1.2 -0.6  0.   0.6  1.2  1.8
  2.4  3.   3.6  4.2  4.8  5.4  6. ]
save_dir:  models/double_pendulum/3000_episodes
Model: "model"
_________________________________________________________________
 Layer (type)                Output Shape              Param #
=================================================================
 input_1 (InputLayer)        [(None, 4)]               0
 dense (Dense)               (None, 16)                80
 dense_1 (Dense)             (None, 32)                544
 dense_2 (Dense)             (None, 64)                2112
 dense_3 (Dense)             (None, 64)                4160
 dense_4 (Dense)             (None, 21)                1365
=================================================================
Total params: 8,261
Trainable params: 8,261
Non-trainable params: 0
_________________________________________________________________
4
19
3
11
13
13
2
18
15
12
5
4
16
11
20
0
7
0
3
10
15
4
1
1
15
17
10
7
10
18
6
1
9
2
2
19
14
20
3
17
17
12
18
8
5
6
10
11
0
10
3
5
1
20
6
18
0
10
2
18
10
12
2
2
3
17
17
11
10
19
3
10
17
3
11
7
0
20
15
…
