Model: "model"
_________________________________________________________________
 Layer (type)                Output Shape              Param #
=================================================================
 input_1 (InputLayer)        [(None, 4)]               0
 dense (Dense)               (None, 16)                80
 dense_1 (Dense)             (None, 32)                544
 dense_2 (Dense)             (None, 64)                2112
 dense_3 (Dense)             (None, 64)                4160
 dense_4 (Dense)             (None, 7)                 455
=================================================================
Total params: 7,351
Trainable params: 7,351
Non-trainable params: 0
_________________________________________________________________
Episode : 1 sum_costs : -2044.79 Avg Reward : -2044.79
Episode : 2 sum_costs : -2110.00 Avg Reward : -2077.39
Episode : 3 sum_costs : -2472.55 Avg Reward : -2209.11
Episode : 4 sum_costs : -2110.93 Avg Reward : -2184.57
…
