Model: "model"
_________________________________________________________________
 Layer (type)                Output Shape              Param #
=================================================================
 input_1 (InputLayer)        [(None, 4)]               0
 dense (Dense)               (None, 16)                80
 dense_1 (Dense)             (None, 32)                544
 dense_2 (Dense)             (None, 64)                2112
 dense_3 (Dense)             (None, 64)                4160
 dense_4 (Dense)             (None, 7)                 455
=================================================================
Total params: 7,351
Trainable params: 7,351
Non-trainable params: 0
_________________________________________________________________
Episode : 1 sum_costs : -2215.43 Avg Reward : -2215.43
Traceback (most recent call last):
  File "DQN template.py", line 397, in <module>
    train_dqn(dqn, env, episodes, critic_optimizer, save_dir, go_on=False)
…
