Model: "model"
_________________________________________________________________
 Layer (type)                Output Shape              Param #
=================================================================
 input_1 (InputLayer)        [(None, 4)]               0
 dense (Dense)               (None, 16)                80
 dense_1 (Dense)             (None, 32)                544
 dense_2 (Dense)             (None, 64)                2112
 dense_3 (Dense)             (None, 64)                4160
 dense_4 (Dense)             (None, 21)                1365
=================================================================
Total params: 8,261
Trainable params: 8,261
Non-trainable params: 0
_________________________________________________________________
Episode : 1 sum_costs : -2273.35 Avg Reward : -2273.35
Episode : 2 sum_costs : -2079.33 Avg Reward : -2176.34
Episode : 3 sum_costs : -2162.78 Avg Reward : -2171.82
Episode : 4 sum_costs : -2005.44 Avg Reward : -2130.22
…
