Model: "model"
_________________________________________________________________
 Layer (type)                Output Shape              Param #
=================================================================
 input_1 (InputLayer)        [(None, 4)]               0
 dense (Dense)               (None, 16)                80
 dense_1 (Dense)             (None, 32)                544
 dense_2 (Dense)             (None, 64)                2112
 dense_3 (Dense)             (None, 64)                4160
 dense_4 (Dense)             (None, 7)                 455
=================================================================
Total params: 7,351
Trainable params: 7,351
Non-trainable params: 0
_________________________________________________________________
Episode : 1 sum_costs : -2061.16 Avg Reward : -2061.16
Episode : 2 sum_costs : -2266.14 Avg Reward : -2163.65
Episode : 3 sum_costs : -2381.24 Avg Reward : -2236.18
Episode : 4 sum_costs : -2298.84 Avg Reward : -2251.84
…
