Warning: window 'pinocchio' already created.
The previously created objects will not be destroyed and do not have to be created again.
[-6.  -5.4 -4.8 -4.2 -3.6 -3.  -2.4 -1.8 -1.2 -0.6  0.   0.6  1.2  1.8
  2.4  3.   3.6  4.2  4.8  5.4  6. ]
save_dir:  models/double_pendulum/3000_episodes
Model: "model"
_________________________________________________________________
 Layer (type)                Output Shape              Param #
=================================================================
 input_1 (InputLayer)        [(None, 4)]               0
 dense (Dense)               (None, 16)                80
 dense_1 (Dense)             (None, 32)                544
 dense_2 (Dense)             (None, 64)                2112
 dense_3 (Dense)             (None, 64)                4160
 dense_4 (Dense)             (None, 21)                1365
=================================================================
Total params: 8,261
Trainable params: 8,261
Non-trainable params: 0
_________________________________________________________________
Episode : 1 sum_costs : -1580.81 Avg Reward : -1580.81
Episode : 2 sum_costs : -2212.78 Avg Reward : -1896.80
Episode : 3 sum_costs : -2700.34 Avg Reward : -2164.64
Episode : 4 sum_costs : -2673.51 Avg Reward : -2291.86
…
