Model: "model"
_________________________________________________________________
 Layer (type)                Output Shape              Param #
=================================================================
 input_1 (InputLayer)        [(None, 2)]               0
 dense (Dense)               (None, 16)                48
 dense_1 (Dense)             (None, 32)                544
 dense_2 (Dense)             (None, 64)                2112
 dense_3 (Dense)             (None, 64)                4160
 dense_4 (Dense)             (None, 21)                1365
=================================================================
Total params: 8,229
Trainable params: 8,229
Non-trainable params: 0
_________________________________________________________________
Episode : 1 sum_costs : -377.16 Avg Reward : -377.16
Episode : 2 sum_costs : -455.18 Avg Reward : -416.17
Episode : 3 sum_costs : -699.68 Avg Reward : -510.67
Episode : 4 sum_costs : -299.80 Avg Reward : -457.95
…
