Model: "model"
_________________________________________________________________
 Layer (type)                Output Shape              Param #
=================================================================
 input_1 (InputLayer)        [(None, 4)]               0
 dense (Dense)               (None, 16)                80
 dense_1 (Dense)             (None, 32)                544
 dense_2 (Dense)             (None, 64)                2112
 dense_3 (Dense)             (None, 64)                4160
 dense_4 (Dense)             (None, 7)                 455
=================================================================
Total params: 7,351
Trainable params: 7,351
Non-trainable params: 0
_________________________________________________________________
Episode : 1 sum_costs : -2344.76 Avg Reward : -2344.76
Episode : 2 sum_costs : -2031.97 Avg Reward : -2188.36
Episode : 3 sum_costs : -2377.61 Avg Reward : -2251.45
Episode : 4 sum_costs : -1829.33 Avg Reward : -2145.92
…
