
[34m[1mwandb[39m[22m: [33mWARNING[39m Calling wandb.login() after wandb.init() has no effect.
Model: "model"
_________________________________________________________________
 Layer (type)                Output Shape              Param #
=================================================================
 input_1 (InputLayer)        [(None, 2)]               0
 dense (Dense)               (None, 16)                48
 dense_1 (Dense)             (None, 32)                544
 dense_2 (Dense)             (None, 64)                2112
 dense_3 (Dense)             (None, 64)                4160
 dense_4 (Dense)             (None, 11)                715
=================================================================
Total params: 7,579
Trainable params: 7,579
Non-trainable params: 0
_________________________________________________________________
Traceback (most recent call last):
  File "DQN template.py", line 176, in <module>
    next_x, cost = env.step(u)
  File "/home/edo/Desktop/orc/03_assignment/pendulum.py", line 143, in step
    _,self.r = self.dynamics(self.x, u)
…
