Model: "model"
_________________________________________________________________
 Layer (type)                Output Shape              Param #
=================================================================
 input_1 (InputLayer)        [(None, 4)]               0
 dense (Dense)               (None, 16)                80
 dense_1 (Dense)             (None, 32)                544
 dense_2 (Dense)             (None, 64)                2112
 dense_3 (Dense)             (None, 64)                4160
 dense_4 (Dense)             (None, 17)                1105
=================================================================
Total params: 8,001
Trainable params: 8,001
Non-trainable params: 0
_________________________________________________________________
Episode : 1 sum_costs : -2057.16 Avg Reward : -2057.16
Episode : 2 sum_costs : -2166.94 Avg Reward : -2112.05
Episode : 3 sum_costs : -2162.84 Avg Reward : -2128.98
Episode : 4 sum_costs : -2231.08 Avg Reward : -2154.51
…
